models/power_system_transformer_model.pth (torch, 659441 bytes, 29 tensors)

input_embedding.weight f4 [64, 576]
000000 32 c9 de 3c c0 15 4f bc a6 cc 17 bb 2a f9 ce 3c
       0.027195547 -0.012639463 -0.0023162751 0.025265295
000010 45 2c 09 bd 68 b2 fb 3c 8c 66 3b bb 4b c0 dc 3c
       -0.033489484 0.03072472 -0.0028595058 0.026947161
000020 38 59 3d 3c 88 03 22 3a 54 58 3d 3c 70 b5 06 3b
       0.011556916 0.0006180336 0.011556704 0.0020554923
000030 6d 65 ab 3c fe 64 2c bc ad 1c 31 3b cc 70 01 3b
       0.020922387 -0.010522125 0.0027025149 0.001975107
000040 98 e5 c5 3b 47 cc b6 3b b1 ad 2c 3d 63 54 99 3c
       0.0060393326 0.005578551 0.042157833 0.018716997
000050 b6 3a 7e bc f3 26 ce bc e8 d9 e4 bb 20 3b 93 bc
       -0.0155169275 -0.025165057 -0.0069839843 -0.017972529
000060 4f 8e 00 bc 02 37 f5 3b 02 35 f8 3c 60 b2 e6 3c
       -0.007846429 0.007483364 0.030298714 0.028161228
000070 35 78 10 bd c3 07 00 3d ef 15 8c 3c 33 72 38 3d
       -0.03527089 0.031257402 0.017100303 0.045030784
000080 ab 21 07 3d ea 1a 05 bd 74 45 22 bd d3 a2 a4 bc
       0.032991093 -0.03249637 -0.039617017 -0.020097172
000090 40 40 2c 3d 0a 54 c0 ba 70 eb be 3c aa 84 63 bc
       0.04205346 -0.0014673483 0.023305625 -0.01388661
0000a0 11 76 27 3d 9c 7e 46 bc c6 6e 16 3d 54 9b c3 3b
       0.04088408 -0.012115147 0.036726736 0.0059694443
0000b0 03 d2 b3 bc 4e 73 af 3c c6 2f b5 bc 84 c6 48 3c
       -0.021950727 0.021417286 -0.022117507 0.012254361
0000c0 82 75 dd bb 11 55 3e 3a 26 9e 0e bd a9 60 6f bc
       -0.006758393 0.00072606007 -0.03481879 -0.014610448
0000d0 69 67 e4 3c 9f 27 a0 bb 39 92 3f 3d 9f 6a 1e 3d
       0.027881341 -0.0048875357 0.04677031 0.0386759
0000e0 61 0e 57 3b 01 7d b8 bc ee db cf 3c d4 de 53 3c
       0.0032814967 -0.022520544 0.025373425 0.012931544
0000f0 8d 89 b1 bc 75 5c 04 3d 67 a9 f9 3c dc 01 2d 3d
       -0.021672035 0.032314736 0.030476285 0.0422381
000100 73 56 bf bc 16 e3 d1 ba f6 ff 91 3b d8 70 3a 3c
       -0.023356652 -0.0016013111 0.0044555617 0.011379443
000110 a6 85 01 bd c0 37 f2 bc da af b9 3c 70 14 20 bc
       -0.031621598 -0.0295676 0.02266686 -0.009770498
000120 7a dc d0 3c ae 20 f7 3b 64 7d 9a 3c e8 fa 6a 3c
       0.025495756 0.0075417375 0.018858619 0.014342047
000130 0e 54 a6 3c b7 5e d3 3c ab 0e 09 bd 4d 54 d6 3c
       0.020303752 0.025802 -0.033461254 0.026163245
000140 dc af c5 bc 48 52 d7 bc 50 10 26 3b a0 a9 e8 bb
       -0.024131708 -0.026284352 0.0025339313 -0.007100299
000150 cd e6 f2 3c 6e 70 9b bc da 84 02 bd 3a 4a 11 3d
       0.02965107 -0.01897451 -0.03186498 0.03547118
000160 40 74 ca bb ff 53 ea 3c 34 cb 97 3c f3 89 d5 bc
       -0.006178409 0.028604506 0.018529512 -0.026066756
000170 84 25 09 3c 64 f9 23 3c ee 8a e4 bc 06 f4 a1 bc
       0.008370761 0.01000819 -0.027898278 -0.01976968
000180 20 21 9e 3c 08 73 4d 3c 85 09 50 bc 99 1b f9 bb
       0.019302905 0.012539633 -0.012697582 -0.007602167
000190 a2 f7 30 3d 1d 5b 31 bb 72 e5 e9 3c 9e 1a bd 3c
       0.04320491 -0.0027062364 0.02855179 0.023083981
0001a0 e3 88 b3 bc e4 23 f9 bc 2d d2 23 3d 30 96 0e 3b
       -0.021915859 -0.030412622 0.03999536 0.0021757
0001b0 27 98 09 3d 5b 09 60 3c 1e 32 97 3c f2 e4 13 3d
       0.03359237 0.0136741055 0.018456515 0.03610701
0001c0 21 d4 21 3d 26 13 b9 bc de 1e 28 3c 44 1d 14 3d
       0.039508943 -0.022592138 0.010261266 0.036160722
0001d0 1a 46 f7 3c a6 0c d4 3c 86 07 f7 bc ab cb f5 bc
       0.030184794 0.025884937 -0.030154955 -0.030004343
0001e0 7b ad a4 bc 1c fa 28 3c 3f fe 3e 3d 4a 20 ae bc
       -0.020102253 0.010313537 0.046629187 -0.021255631
0001f0 a1 22 df 3c 8b 4a 93 bc c3 8f 0b bd f0 94 73 bb
       0.027238192 -0.01797988 -0.03407265 -0.003716763
000200 e6 0b ee 3c 0a 5f 33 3d 33 fb d3 bc 74 25 14 3c
       0.029058408 0.04379181 -0.025876617 0.009042133
000210 c9 2b 28 3d b9 f3 05 3d a2 52 fe 3c 10 2b 0e 3d
       0.04105738 0.032703135 0.031045262 0.034709036
000220 22 e6 d7 3c e0 31 82 3c 66 c5 bf bc 19 1c f5 bc
       0.026354853 0.015892923 -0.023409557 -0.029920625
000230 ee 67 9c bc c8 fc 9e bb 96 38 d1 bc 90 c1 79 3c
       -0.019092526 -0.004851911 -0.025539678 0.015243903
000240 d0 0f 94 3c 87 c8 8c bb c2 57 ad 3c 3a b3 98 3c
       0.018073946 -0.0042963657 0.02116001 0.01864015
000250 0b 49 fa 3c cd 35 08 3d a3 02 13 bc 4f dd 3b 3d
       0.030552408 0.033254433 -0.008972797 0.045865353
000260 40 72 c3 39 7f ce 72 3b c0 16 21 bd 0b b0 db bc
       0.0003727842 0.003704935 -0.039328337 -0.026817342
000270 cf 64 9d bc b3 a1 4f bc 55 9f 0e 3d 2c 0a 0b bc
       -0.019213108 -0.012672829 0.03481992 -0.008486312
000280 6e 12 ff bc 7b 32 ad 3c 71 28 97 3c 64 ab 03 3d
       -0.031136718 0.021142235 0.018451901 0.032145873
000290 68 a1 b0 bc 2c 03 14 3c 76 86 78 bc c0 60 19 bc
       -0.02156134 0.009033959 -0.015168777 -0.009361446
0002a0 12 26 e4 bc f0 c5 5e bc 68 db f1 bb db 06 be 3c
       -0.027850185 -0.013596997 -0.0073808916 0.023196628
0002b0 9c c9 54 3c ce ee 7f 3c 07 4c 40 3d be 5c 3c 3d
       0.012987521 0.0156209 0.046947505 0.045986883
0002c0 81 78 0a 3d 29 bd db 3b a8 21 ec bc ad 60 05 3d
       0.033806328 0.0067058993 -0.028824642 0.0325629
0002d0 b9 72 a5 bb 16 d2 02 3b 10 00 fa bc db a8 3a bb
       -0.0050490764 0.0019961647 -0.030517608 -0.0028481993
0002e0 e6 27 dc bc 16 d7 32 3d 0f ac fa bc 5b fc dd bc
       -0.026874494 0.043662153 -0.030599622 -0.027097872
0002f0 60 72 b9 ba 70 90 b8 bc 20 44 74 3c 50 63 83 bc
       -0.0014148466 -0.02252981 0.01490882 -0.016038567
000300 11 a5 61 bc 0f 42 06 3c 21 60 13 3d ea eb c0 bc
       -0.013772265 0.0081944605 0.035980348 -0.023549993
000310 cc d9 cf 3c f0 6e 05 3d 92 aa 3e 3d 2c 4c bf bc
       0.025372408 0.0325765 0.046549387 -0.023351751
000320 1d 12 82 3c 2e ae cc bc eb b4 11 3d c6 67 84 bc
       0.015877778 -0.0249854 0.035572927 -0.016162764
000330 33 34 fd 3c 30 78 e6 3b 39 48 29 3b c9 82 94 3b
       0.03090868 0.0070333704 0.0025830402 0.0045321924
000340 60 19 e8 3b 8d 83 d0 3c aa 59 4c 3c 02 d3 97 3c
       0.007083103 0.025453353 0.012472549 0.018533234
000350 d6 84 19 bd 92 ac f8 3c 51 cc 14 3d f5 12 0d 3d
       -0.037480198 0.030355725 0.036327664 0.034441907
000360 4a 45 17 3d f6 53 c4 bc df cf 18 bc 00 5d 2f 3d
       0.036931314 -0.023965817 -0.009326904 0.0428133
000370 96 31 d2 bc c2 e8 33 3d 8f 9f da bc f6 93 be bc
       -0.02565841 0.043923147 -0.026687412 -0.023263913
000380 6d cd d8 3c 42 40 c3 bc 40 66 1c bc 36 51 f8 3c
       0.026465142 -0.023834351 -0.009545863 0.030312162
000390 93 06 20 3d 1d 5b 3a 3d a7 e9 19 bb e4 67 d7 bc
       0.03906877 0.04549705 -0.0023485215 -0.026294656
0003a0 4f 0a 28 3d eb aa 37 bb 79 a9 34 bc c4 5e 85 3c
       0.041025456 -0.002802546 -0.011026734 0.01628054
0003b0 e8 b3 ee bc 06 5a e0 3c be ec d5 3c ba 6b 07 bd
       -0.02913852 0.027386677 0.026113864 -0.03306172
0003c0 de cd e5 bc f8 92 23 3b 7c d8 c1 3c fd 41 a1 3b
       -0.028052267 0.0024959426 0.023662798 0.0049211965
0003d0 39 71 75 bc 99 b6 e9 3b a5 2b 07 bd cb b2 be bc
       -0.014980608 0.007132363 -0.033000607 -0.023278615
0003e0 de ca b0 bc 58 96 25 3d 95 71 16 3d 10 e1 67 bc
       -0.02158111 0.040426582 0.036729414 -0.01415278
0003f0 27 7b 03 3c 0f b0 ca 3c 2b 6e 36 3c c3 82 70 bc
       0.008024967 0.024742154 0.0111346645 -0.0146796135

input_embedding.bias f4 [64]
000000 67 35 b5 3c 17 17 55 bc 99 25 18 bc 2c af 3f 39
       0.02212019 -0.013005993 -0.009286308 0.00018280436
000010 10 fc 4c bd 57 b4 18 3c 42 7b 1e 3d 17 89 0e bd
       -0.050045073 0.00932034 0.038691767 -0.034798708
000020 b9 cb 29 bc 50 60 16 bd 02 74 6c bd 13 51 83 3d
       -0.010363513 -0.036712945 -0.05772782 0.06411948
000030 6d 05 f5 bc 69 87 58 3b 0d fa 73 3c e5 e0 98 bc
       -0.029909814 0.0033039695 0.01489116 -0.018661926
000040 65 68 6c bd e7 e9 76 3c ce 9c d2 bc bc ea 68 3d
       -0.057716746 0.015070415 -0.025709536 0.056864485
000050 e4 66 c7 3c a8 0f ed 3c 6d d2 42 bd d1 de c5 bc
       0.024341054 0.02893813 -0.04756396 -0.024154099
000060 34 c5 0b 3d 6e 76 98 bc 30 9d 67 3c 04 c3 6d bc
       0.034123614 -0.01861116 0.0141365975 -0.014511827
000070 d8 f4 83 ba 65 a2 76 3c c4 b7 e7 3c 61 67 0e 3b
       -0.0010067476 0.015053366 0.028285868 0.00217291
000080 82 eb 98 bd b4 a1 8b 3d dc df 0c 3b 3b e5 3a bc
       -0.074667946 0.06817952 0.0021495735 -0.011407192
000090 ce 6c d7 bc 41 4c 98 3b 53 1d bc bd 10 fd 2e 3c
       -0.026297 0.004647762 -0.09185281 0.010680452
0000a0 ff 3c a7 3d b3 81 a2 bc 2e b9 6d bd f2 b9 1b bd
       0.08165931 -0.019837236 -0.05803793 -0.03801913
0000b0 f7 46 67 3a cc 01 6b 3c 6c 99 a5 bc 8c 4d 17 3d
       0.0008822525 0.01434369 -0.020214759 0.03693919
0000c0 3a 35 98 bc 83 f5 0f 3d d1 19 72 bc 86 23 eb 3b
       -0.018580068 0.035146248 -0.014776663 0.0071758656
0000d0 bf b2 7f bd bd df 62 bc 44 fe dc bc bb 6e d9 bc
       -0.062426325 -0.013847289 -0.026976712 -0.026542058
0000e0 0e 62 8e bc 5b b3 b6 bc e5 7d 47 bc e2 36 ba 3a
       -0.01738074 -0.02230232 -0.012176012 0.001420703
0000f0 5c bf 57 3a 72 e3 a4 bc 85 7f 00 bd 70 be 0f 3d
       0.0008230114 -0.020127986 -0.031371612 0.035093725

pos_encoder.pe f4 [1, 100, 64]
000000 00 00 00 00 00 00 80 3f 00 00 00 00 00 00 80 3f
       0.0 1.0 0.0 1.0
000010 00 00 00 00 00 00 80 3f 00 00 00 00 00 00 80 3f
       0.0 1.0 0.0 1.0
000020 00 00 00 00 00 00 80 3f 00 00 00 00 00 00 80 3f
       0.0 1.0 0.0 1.0
000030 00 00 00 00 00 00 80 3f 00 00 00 00 00 00 80 3f
       0.0 1.0 0.0 1.0
000040 00 00 00 00 00 00 80 3f 00 00 00 00 00 00 80 3f
       0.0 1.0 0.0 1.0
000050 00 00 00 00 00 00 80 3f 00 00 00 00 00 00 80 3f
       0.0 1.0 0.0 1.0
000060 00 00 00 00 00 00 80 3f 00 00 00 00 00 00 80 3f
       0.0 1.0 0.0 1.0
000070 00 00 00 00 00 00 80 3f 00 00 00 00 00 00 80 3f
       0.0 1.0 0.0 1.0
000080 00 00 00 00 00 00 80 3f 00 00 00 00 00 00 80 3f
       0.0 1.0 0.0 1.0
000090 00 00 00 00 00 00 80 3f 00 00 00 00 00 00 80 3f
       0.0 1.0 0.0 1.0
0000a0 00 00 00 00 00 00 80 3f 00 00 00 00 00 00 80 3f
       0.0 1.0 0.0 1.0
0000b0 00 00 00 00 00 00 80 3f 00 00 00 00 00 00 80 3f
       0.0 1.0 0.0 1.0
0000c0 00 00 00 00 00 00 80 3f 00 00 00 00 00 00 80 3f
       0.0 1.0 0.0 1.0
0000d0 00 00 00 00 00 00 80 3f 00 00 00 00 00 00 80 3f
       0.0 1.0 0.0 1.0
0000e0 00 00 00 00 00 00 80 3f 00 00 00 00 00 00 80 3f
       0.0 1.0 0.0 1.0
0000f0 00 00 00 00 00 00 80 3f 00 00 00 00 00 00 80 3f
       0.0 1.0 0.0 1.0
000100 a4 6a 57 3f 41 51 0a 3f ce 7a 2e 3f b0 54 3b 3f
       0.84147096 0.54030234 0.68156135 0.731761
000110 ba 7d 08 3f 0d 94 58 3f f0 90 d1 3e c7 92 69 3f
       0.53316844 0.8460091 0.4093089 0.9123959
000120 3e 39 9f 3e 6b 4e 73 3f 25 8f 70 3e f1 d5 78 3f
       0.3109836 0.9504153 0.23492105 0.9720145
000130 3a 23 35 3e 83 f6 7b 3f f3 25 08 3e 28 ba 7d 3f
       0.17689219 0.9842302 0.13295726 0.99112177
000140 76 75 cc 3d 98 b8 7e 3f 36 6f 99 3d d1 47 7f 3f
       0.099833414 0.9950042 0.07491915 0.9971896
000150 ae 36 66 3d 68 98 7f 3f fa ac 2c 3d bd c5 7f 3f
       0.05620449 0.9984193 0.04215715 0.999111
000160 5b 81 01 3d 3c df 7f 3f a5 3e c2 3c 93 ed 7f 3f
       0.031617504 0.99950004 0.023711512 0.99971884
000170 42 ab 91 3c a3 f5 7f 3f 49 7a 5a 3c 2c fa 7f 3f
       0.017781857 0.99984187 0.013334819 0.99991107
000180 57 d6 23 3c b9 fc 7f 3f 16 b9 f5 3b 28 fe 7f 3f
       0.009999833 0.99995 0.0074988706 0.99997187
000190 5a 44 b8 3b f7 fe 7f 3f 5a 2e 8a 3b 6b ff 7f 3f
       0.0056233825 0.9999842 0.0042169513 0.9999911
0001a0 1c 3e 4f 3b ac ff 7f 3f 03 69 1b 3b d1 ff 7f 3f
       0.0031622713 0.999995 0.0023713715 0.9999972
0001b0 20 15 e9 3a e6 ff 7f 3f 8a c9 ae 3a f1 ff 7f 3f
       0.0017782785 0.99999845 0.001333521 0.9999991
0001c0 6d 12 83 3a f8 ff 7f 3f 89 94 44 3a fb ff 7f 3f
       0.0009999998 0.9999995 0.000749894 0.9999997
0001d0 13 6a 13 3a fd ff 7f 3f 21 17 dd 39 ff ff 7f 3f
       0.0005623411 0.9999998 0.00042169637 0.99999994
0001e0 61 cb a5 39 ff ff 7f 3f 0d a8 78 39 00 00 80 3f
       0.00031622782 0.99999994 0.00023713727 1.0
0001f0 53 77 3a 39 00 00 80 3f 6d d4 0b 39 00 00 80 3f
       0.00017782794 1.0 0.00013335208 1.0
000200 b7 c7 68 3f 33 11 d5 be d9 5a 7f 3f 53 4d 91 3d
       0.9092974 -0.41614684 0.99748 0.070948265
000210 0a f2 66 3f b2 e8 dc 3e 11 35 3f 3f 03 39 2a 3f
       0.9021307 0.43146282 0.7469035 0.6649324
000220 1b 54 17 3f ec 7b 4e 3f b5 d3 e9 3e 69 be 63 3f
       0.5911271 0.8065784 0.45669332 0.8896242
000230 f6 47 b2 3e a6 fa 6f 3f 82 f0 86 3e f5 f2 76 3f
       0.34820527 0.93741834 0.26355368 0.96464473
000240 f8 6f 4b 3e a5 e5 7a 3f d3 00 19 3e 4f 20 7d 3f
       0.19866931 0.9800666 0.1494172 0.98877424
000250 86 d9 e5 3d f3 61 7e 3f ae 85 ac 3d 0e 17 7f 3f
       0.1122313 0.9936821 0.08423935 0.99644554
000260 c8 70 81 3d f9 7c 7f 3f aa 30 42 3d 4e b6 7f 3f
       0.063203394 0.9980007 0.04740969 0.9988755
000270 5c a5 11 3d 8e d6 7f 3f 50 75 da 3c b1 e8 7f 3f
       0.03555809 0.9993676 0.026667267 0.99964434
000280 3e d4 a3 3c e5 f2 7f 3f 51 b7 75 3c a1 f8 7f 3f
       0.019998666 0.9998 0.014997319 0.9998875
000290 9b 43 38 3c db fb 7f 3f 0a 2e 0a 3c ab fd 7f 3f
       0.011246587 0.99993676 0.008433828 0.9999644
0002a0 d8 3d cf 3b b1 fe 7f 3f e7 68 9b 3b 43 ff 7f 3f
       0.006324511 0.99998003 0.00474273 0.99998873
0002b0 08 15 69 3b 96 ff 7f 3f 7f c9 2e 3b c4 ff 7f 3f
       0.0035565514 0.9999937 0.0026670394 0.9999964
0002c0 68 12 03 3b df ff 7f 3f 85 94 c4 3a ed ff 7f 3f
       0.0019999985 0.99999803 0.0014997876 0.99999887
0002d0 12 6a 93 3a f5 ff 7f 3f 1f 17 5d 3a fa ff 7f 3f
       0.0011246821 0.99999934 0.0008433926 0.99999964
0002e0 60 cb 25 3a fd ff 7f 3f 0c a8 f8 39 fe ff 7f 3f
       0.0006324556 0.9999998 0.0004742745 0.9999999
0002f0 53 77 ba 39 ff ff 7f 3f 6d d4 8b 39 00 00 80 3f
       0.00035565588 0.99999994 0.00026670416 1.0
000300 c3 81 10 3e 26 70 7d bf de 3c 47 3f ce bf 20 bf
       0.14112 -0.9899925 0.7782725 -0.6279267
000310 d7 45 7e 3f ab 7f ed bd 63 21 74 3f 63 18 9a 3e
       0.9932532 -0.11596616 0.95363444 0.3009673
000320 c2 09 50 3f 58 2f 15 3f b7 24 27 3f a2 e7 41 3f
       0.8126489 0.58275366 0.652904 0.7574407
000330 6c 2f 02 3f 29 6d 5c 3f a7 68 c7 3e 37 c9 6b 3f
       0.5085361 0.86104065 0.3894703 0.92103904
000340 6c 4e 97 3e ef 90 74 3f e2 6d 64 3e 92 8c 79 3f
       0.2955202 0.9553365 0.22307542 0.9748012
000350 d7 ee 2b 3e 9e 5d 7c 3f 2c 33 01 3e 43 f4 7d 3f
       0.16790329 0.9858035 0.12617177 0.9920084
000360 c0 ff c1 3d 4f d9 7e 3f 06 93 91 3d 3a 5a 7f 3f
       0.094726086 0.99550337 0.071081206 0.9974705
000370 4e 69 5a 3d c3 a2 7f 3f c5 d1 23 3d 90 cb 7f 3f
       0.053323083 0.9985773 0.039994974 0.99919987
000380 1f b9 f5 3c 83 e2 7f 3f 47 47 b8 3c 6b ef 7f 3f
       0.0299955 0.99955004 0.022494925 0.999747
000390 c6 31 8a 3c ad f6 7f 3f 46 44 4f 3c c1 fa 7f 3f
       0.016869437 0.9998577 0.012650555 0.99991995
0003a0 0d 6e 1b 3c 0d fd 7f 3f 13 1d e9 3b 58 fe 7f 3f
       0.009486687 0.999955 0.0071140616 0.9999747
0003b0 a8 cf ae 3b 11 ff 7f 3f 13 17 83 3b 7a ff 7f 3f
       0.005334813 0.99998575 0.0040005534 0.999992
0003c0 92 9b 44 3b b5 ff 7f 3f 60 6f 13 3b d6 ff 7f 3f
       0.0029999954 0.9999955 0.0022496805 0.9999975
0003d0 17 1f dd 3a e8 ff 7f 3f 56 d1 a5 3a f3 ff 7f 3f
       0.0016870227 0.99999857 0.0012650888 0.9999992
0003e0 10 b1 78 3a f9 ff 7f 3f 09 7e 3a 3a fc ff 7f 3f
       0.00094868336 0.9999996 0.00071141176 0.99999976
0003f0 7e d9 0b 3a fe ff 7f 3f a4 be d1 39 ff ff 7f 3f
       0.0005334838 0.9999999 0.00040005625 0.99999994

transformer_encoder.layers.0.self_attn.in_proj_weight f4 [192, 64]
000000 21 52 e6 3d 92 e1 69 bd cb 30 c6 3d fa 90 d4 3d
       0.112461336 -0.057099886 0.09677275 0.103792146
000010 38 b2 12 3e 3d 3f 24 3e 47 e9 bb 3d 32 3d 80 3d
       0.14325798 0.16039748 0.091753535 0.06261672
000020 95 94 ca bd 80 ba ab bd e9 c5 24 be 9a bd 16 b9
       -0.09891621 -0.083851814 -0.16091122 -0.00014375747
000030 09 9b e4 3d b1 ba b9 3d 81 3e 44 bd 40 50 db bd
       0.11162383 0.09068812 -0.04791117 -0.10708666
000040 5e c9 78 bd 57 bf 08 3c c9 d9 1a bb 41 10 d8 3d
       -0.060738914 0.0083464 -0.0023628345 0.10549975
000050 ff 8c 06 be ab be d0 3d 98 5a ea 3c 23 44 b5 3d
       -0.13139723 0.10192617 0.028607652 0.08850887
000060 a3 5d ed bd 4b 6f d4 3c ab 1b a8 bd 1c 7b c8 bc
       -0.115901254 0.025931975 -0.08208402 -0.024472766
000070 e3 aa c6 bd f1 a7 01 3d e4 e0 82 bd 45 cb ca bd
       -0.09700563 0.031654302 -0.06390551 -0.09902052
000080 68 39 b5 3d 27 b4 0a be ab 42 f0 3d 58 5e e3 bd
       0.0884884 -0.13545285 0.11731466 -0.11101979
000090 3a c0 77 bd 81 a6 71 bc df 57 1f 3e 60 da 83 bd
       -0.060486056 -0.01474917 0.15560864 -0.06438136
0000a0 6c 3c 92 bc 4a 56 ce bd 53 19 c4 3d 77 c6 00 bd
       -0.017851077 -0.10075052 0.09575143 -0.03143927
0000b0 7c ab 8b 3d 74 f9 c6 bd 3d 35 8a 3d dd fe 2d bd
       0.068198174 -0.09715548 0.06748436 -0.042479385
0000c0 1b 1d 8c bd ef e1 cb 3d 61 d7 bf 3d e3 44 1f be
       -0.06841489 0.09955203 0.09367252 -0.15553622
0000d0 7f ad c5 3d 91 c1 8a bd 1b 63 c4 3d 35 4f e0 3d
       0.096522324 -0.06775201 0.09589215 0.109526075
0000e0 8d 05 06 3e fd 28 eb 3c d5 a2 02 3d 83 c9 74 bd
       0.13088055 0.028706068 0.03189357 -0.05976249
0000f0 ca 3b 80 3d 8a 1b 97 bd ab a9 36 bd 3d 10 8b 3d
       0.06261404 -0.073782995 -0.0445954 0.067902066
000100 fd 95 41 3d 98 c3 5f bd ce f8 2b bd 6f b2 c2 bd
       0.04726218 -0.054629892 -0.041985326 -0.0950669
000110 7f a7 03 3e d2 1d c0 3d 76 e2 0e be 6c 2d 12 bd
       0.12856863 0.09380688 -0.13953575 -0.03568785
000120 c2 ea c9 3d 3d b4 3b bd 2c 3a 91 3d a4 ac fe 3d
       0.098592296 -0.045826185 0.070911735 0.12435272
000130 2c c5 ae bc f9 67 ac 3d 37 50 1c bd 87 fc a0 bc
       -0.021334253 0.08418269 -0.038162436 -0.019651664
000140 ad ff 88 3d 07 1d 55 bd 33 5a b1 3d ec bf 90 bd
       0.06689391 -0.052029636 0.08659782 -0.07067856
000150 60 7b bc bd 8f 1c 80 3d a7 42 1b be f8 f6 a1 bb
       -0.092032194 0.06255447 -0.15162145 -0.004942771
000160 28 e8 1b 3e 37 64 c9 3d 77 cb c1 3d 1b bc be 3d
       0.1522528 0.098335676 0.09462636 0.09313222
000170 a7 a6 a6 3c eb 7f 83 3d 06 79 8c bd ff f3 62 3c
       0.020343138 0.06420883 -0.06859021 0.0138521185
000180 a3 37 88 bc 8c 10 d9 3d a0 0e e9 bc fd a7 17 bd
       -0.016628092 0.10598859 -0.028449357 -0.03702544
000190 a7 f7 38 3d 4e da e0 3c 36 a7 bf bd 40 11 db 3d
       0.045158055 0.027447846 -0.09358065 0.106966496
0001a0 01 c9 d5 3d 71 3a b7 bc b2 48 27 3e 18 1e f1 bc
       0.10438729 -0.022366734 0.16336325 -0.029433295
0001b0 45 98 9e 3c c6 eb 56 3d f7 ad 1e be bc f7 c5 bd
       0.019359717 0.052470945 -0.1549605 -0.09666392
0001c0 03 d3 ee 3d 7c f6 3b bd 5f 40 bd 3d af fd 50 3e
       0.11661341 -0.045889363 0.092407934 0.20409273
0001d0 6f 53 0d be 2a a5 82 3c 7f 6c 3b 3d 77 c9 20 3e
       -0.13801359 0.015947897 0.045757767 0.15701853
0001e0 10 7f 82 bd 3a 58 04 3d 86 cb 3c 3d 8e 38 4d 3d
       -0.063718915 0.032310702 0.046092533 0.050102763
0001f0 6d 0c 08 3e 8b f3 0e bd 11 5f e4 3d b6 67 36 bd
       0.1328599 -0.03490023 0.11150945 -0.0445325
000200 d8 6e 59 bd b9 80 d3 bd ed 71 b4 3d fe ca e0 bd
       -0.053084224 -0.10327286 0.08810792 -0.10976218
000210 8d 34 af 3c 5a f7 e2 bd 41 a9 59 bd f2 f7 8d bd
       0.021387363 -0.11082335 -0.05313993 -0.069320574
000220 ee b9 31 bc 1e 9c 92 bc e6 d6 98 3d 1b fd e0 bd
       -0.010847552 -0.017896708 0.074628636 -0.10985776
000230 7c 76 d9 3d d8 65 98 3b 89 6b 4e 3d 6f 2e 0a 3c
       0.10618302 0.0046508126 0.050395522 0.008433922
000240 a5 e3 18 bd 03 88 3c 3c 9b 24 d4 3d ae 3f 3f bc
       -0.037326474 0.011507037 0.103585444 -0.011672897
000250 3e 2e cd 3b e2 9b 43 bd 32 9b 8d 3d aa a8 ff bd
       0.006261616 -0.047756083 0.06914367 -0.12483342
000260 ae 2e 0c be a8 2b d8 bb bb b0 22 bd ae d3 2f 3d
       -0.13689682 -0.006597001 -0.039719325 0.042926483
000270 cb f8 2a 3d d0 70 82 bd 3a b0 fd 3d 10 32 62 be
       0.041741174 -0.063691735 0.12387128 -0.2208941
000280 28 7d a5 3d b4 12 9c 3b e4 e5 b3 3d 9b af 91 bd
       0.08080512 0.004762972 0.087840825 -0.07113572
000290 f1 c7 d4 3d 57 35 f8 bc 55 3a 07 be 9e fa 9e 3c
       0.10389698 -0.030298872 -0.13205846 0.019406613
0002a0 2b 68 99 bc 69 e7 b9 3d 72 ac c4 3d 9e 10 8c bd
       -0.018726429 0.09077341 0.09603204 -0.06839107
0002b0 3c 71 f4 bc d5 7c f7 ba c4 1d 13 3d 26 70 c4 bd
       -0.02983915 -0.0018881807 0.03591706 -0.09591703
0002c0 85 fc 9e 3d b1 3d 3e 3d 3e 25 27 bd fc ad 7b bd
       0.07763008 0.046445552 -0.040807 -0.06144522
0002d0 a4 0a 1d bb b5 a9 1b bd 7a 91 83 bb 58 5c ee bd
       -0.002396264 -0.038003642 -0.004015145 -0.11638707
0002e0 96 83 3d 3d 15 06 54 be c8 08 91 3d dc 08 cc bd
       0.04626807 -0.20705445 0.07081753 -0.09962627
0002f0 41 6f dd bd 56 db 10 be 83 a5 14 3e 4c 5e 17 be
       -0.108122356 -0.1414617 0.14516263 -0.14782065
000300 fa 6d 5c 3d dc 0b 0d 3e bd f4 ad bc c7 69 9e ba
       0.05381582 0.13774055 -0.021234864 -0.0012085967
000310 39 64 06 3d 59 f3 fb 3d 56 09 bc 3d 87 b1 d7 bd
       0.032810424 0.12302274 0.09181468 -0.105319075
000320 ec 7a 04 3e 1f b7 8d bd 5b 94 3a bd 31 37 94 3c
       0.12937516 -0.06919693 -0.04555164 0.018092724
000330 77 39 b4 3d 1b 0e 99 bc 05 6c 58 3d 88 3b ae 3d
       0.08800023 -0.018683484 0.05283739 0.085074484
000340 29 82 cb 3c d5 9e c6 3d cf ec f6 bc c1 35 fc 3d
       0.024842339 0.096982636 -0.030142216 0.1231494
000350 2b 99 1c be 5f f3 f7 bd e1 ba 12 be 6b bc f5 3d
       -0.15292804 -0.12106966 -0.14329101 0.119988285
000360 e0 d2 6f 3d 8f 7f 82 bd b1 0f 48 bd 5c ac 67 bd
       0.058550715 -0.06371986 -0.04884309 -0.05656086
000370 fd 0c a6 bd 33 42 e1 3d 67 ce 42 bc 85 29 c0 3d
       -0.08107946 0.109989546 -0.0118900305 0.09382919
000380 a8 27 e2 bd 6b 88 14 bd 9c 00 57 bd e3 70 ba bc
       -0.1104272 -0.03626291 -0.052490816 -0.022758907
000390 08 07 ae 3c 82 11 7d bc 9a 69 c3 3d 67 2e 04 3e
       0.021243587 -0.015446069 0.09541626 0.12908326
0003a0 fa 69 9b 3d 01 f5 29 3d 74 e7 5e 3d d1 b5 01 bd
       0.07588573 0.04149342 0.05441995 -0.031667534
0003b0 e4 86 27 be b9 ac aa bd 09 97 ae 3d 19 f8 f6 3d
       -0.1636005 -0.083337255 0.085249014 0.120590396
0003c0 9d 44 e8 3d 1c 8d ca 3d fc 59 93 bc 78 e8 34 3e
       0.11341212 0.09890196 -0.017987244 0.17666805
0003d0 62 3f a5 3d 2b 5a c2 bd 47 1f 0b be 23 96 11 be
       0.0806873 -0.094898544 -0.1358615 -0.14217429
0003e0 73 5c 22 bb 23 89 d5 3b 06 6c cf bc 3f 37 1a 3e
       -0.0024774342 0.006516592 -0.025320064 0.15060137
0003f0 ae 0e 88 3d fc 4d eb ba 11 a7 aa 3d 4f d2 0d be
       0.06643425 -0.0017952318 0.08332647 -0.13849758

transformer_encoder.layers.0.self_attn.in_proj_bias f4 [192]
000000 76 18 34 3d 29 bd 51 3c 2f 0e 93 bd 5b 1f b3 bc
       0.04396864 0.012801447 -0.0718044 -0.021865537
000010 39 25 da 3c 4a d0 c3 3c f8 ac 1c 3d fc d0 38 3d
       0.026629077 0.02390303 0.038250893 0.045121178
000020 34 2a 06 bd 19 94 50 bc d8 c7 13 3c f3 a4 1d bc
       -0.03275509 -0.012730622 0.009019814 -0.0096218465
000030 20 52 e9 bc 8f 56 27 3d a0 1e d5 3c 6a a2 c6 bc
       -0.028481543 0.040854033 0.02601558 -0.024247367
000040 2b 42 80 bd 30 c5 2d bd 5f 5e 29 bd a0 6a 20 bd
       -0.062626205 -0.04242438 -0.041349765 -0.039164186
000050 f4 ea 72 bd 7b 20 99 bc 30 cc 57 bd 48 29 47 bd
       -0.0593061 -0.018692246 -0.052684963 -0.048623353
000060 37 32 9e bc 52 85 3e bd af 50 10 3c 6c 38 2a 3d
       -0.019311054 -0.046513863 0.008808299 0.041557714
000070 a9 6e c7 3c 07 64 4f 3d 50 3b e8 bb 48 8d 1b 3d
       0.024344759 0.050632503 -0.0070871487 0.037976533
000080 eb 4f 27 3c 0d 60 c3 bc e1 5d 22 bd fa 5f 57 3d
       0.010211925 -0.023849512 -0.03964031 0.052581765
000090 b2 57 a4 3c 28 b5 32 bd 52 22 87 3c 21 98 ae 3c
       0.020061348 -0.043629795 0.016495857 0.021312775
0000a0 b9 cf f9 bc 49 5c 71 3c 53 6f ab bc 15 ab b9 3c
       -0.030494558 0.014731475 -0.020927107 0.022664586
0000b0 5e dd 31 3d 16 50 08 bd f8 98 26 bd 2b 32 1a bd
       0.043424003 -0.0332795 -0.040673226 -0.0376455
0000c0 4c f8 17 3d 25 a6 93 3d 48 b3 42 3d 97 6c dd 3c
       0.03710203 0.07209424 0.047534257 0.027029319
0000d0 6d 63 20 bd 88 61 bf 3d 7c e3 d3 bc e8 e6 41 3b
       -0.03915732 0.093447745 -0.025865309 0.0029587094
0000e0 cb 93 a8 3d ae b2 42 3d e4 1f 80 3d 11 ad 64 bd
       0.08231314 0.047533683 0.06256083 -0.05582911
0000f0 63 98 91 bd f4 11 e1 3c 09 dc 21 bd 85 3b 39 3d
       -0.071091436 0.027474381 -0.039516483 0.045222778
000100 38 f8 76 3a 05 8e 8c b8 a8 35 ff 38 98 ae 00 ba
       0.0009421143 -6.7021734e-05 0.00012169342 -0.0004908829
000110 d4 cb 53 3a b4 69 06 b9 8e cc c7 39 d4 8e 4b 3a
       0.0008079384 -0.00012818613 0.00038108643 0.00077651185
000120 23 4b c8 ba 04 bf 70 ba cd ba 87 ba 9d c4 19 3a
       -0.0015281182 -0.0009183737 -0.0010355354 0.00058657845
000130 30 0c c5 ba e3 30 5c 3a e2 b4 0c 3b c4 f1 42 39
       -0.0015033539 0.00083996187 0.002147012 0.00018591346
000140 03 e8 86 ba 2e 01 bd ba 19 0d d1 b7 5f 99 13 39
       -0.0010292534 -0.0014419907 -2.492084e-05 0.00014076148
000150 6b 9a 85 ba 13 a6 3c ba a5 64 b2 ba e6 da b8 b9
       -0.0010193115 -0.0007196378 -0.0013610317 -0.00035258307
000160 34 c7 31 39 f6 8a a4 ba e9 8e 44 ba 7c 5f a3 3a
       0.00016954244 -0.0012553621 -0.0007498102 0.001246437
000170 b6 71 86 3a fd d8 1c 3b f7 53 b9 38 ba ab 1d 3a
       0.0010257277 0.0023933046 8.837127e-05 0.0006014664
000180 cb 51 d4 38 ed 8d 0e bb bf 3d 9b b9 bb 4d 5a b9
       0.00010124183 -0.0021752075 -0.00029609908 -0.00020819057
000190 2a b4 3f 3a 04 c2 b1 ba 38 70 28 3a 49 1f c7 3a
       0.00073129183 -0.001356185 0.00064254133 0.0015191819
0001a0 ac c1 0a b9 6c bb b3 3a 82 18 b6 ba 29 2e 8f 3a
       -0.00013232854 0.0013712472 -0.0013892802 0.0010923791
0001b0 a8 87 be 38 dc b9 bf ba 82 75 2d 39 b3 19 03 39
       9.085174e-05 -0.0014627534 0.00016542341 0.00012502707
0001c0 76 35 e0 39 cd bf 8b ba d2 90 dd 3a 23 4e 3a 3a
       0.0004276444 -0.001066202 0.0016904122 0.000710698
0001d0 5e da d1 ba 6f 86 65 3a 7b 14 03 ba b3 7e b3 38
       -0.0016010513 0.0008755689 -0.0005000305 8.558985e-05
0001e0 db f6 09 3b c5 65 07 3a bc ce 03 3b d8 0f 38 3a
       0.0021051678 0.0005165006 0.0020112237 0.0007021404
0001f0 a4 4d 56 ba b1 0e ab b8 96 c1 c8 ba 83 32 4a 3b
       -0.00081750215 -8.156652e-05 -0.0015316482 0.0030852861
000200 71 77 2e 3b fc 52 39 3b 61 a7 07 3c 5a e2 a1 b9
       0.0026621486 0.0028278222 0.008279652 -0.00030876958
000210 df 5a 91 bb 8d bf e3 b9 45 8f e2 3b 44 63 c4 bb
       -0.0044358815 -0.0004343953 0.0069140517 -0.0059932787
000220 9a 01 23 3c 86 e7 dc bb 67 f2 d8 3b 14 17 4b bc
       0.009949112 -0.006741467 0.0066206935 -0.012395639
000230 49 f6 42 bb 11 72 06 bb 6e ff 30 3b 4f 82 e8 ba
       -0.0029748848 -0.0020514766 0.0027007717 -0.001773903
000240 2e eb 7e bb 76 92 20 3c e1 7b f2 bb 2d 92 71 3b
       -0.0038897502 0.009800544 -0.0074000214 0.003686081
000250 e3 87 c4 bb b2 e4 27 bc 48 91 13 bc d3 1f dc 3b
       -0.0059976443 -0.010247396 -0.009006806 0.006717661
000260 74 cd 11 bc 19 a3 dd bb 02 e0 22 bc b4 a4 86 bb
       -0.0088990815 -0.0067638275 -0.009941103 -0.0041089896
000270 75 39 bf 3b be be 85 3b df 82 9a bb 66 1e 26 bb
       0.005835707 0.004081576 -0.004715308 -0.0025347709
000280 01 d2 f7 b9 29 58 c3 bb f0 90 0a bc 96 b6 23 bb
       -0.00047267976 -0.0059614372 -0.008457407 -0.0024980656
000290 5d f9 2a 3b 5b 6f 8a 3b ec 15 f5 3b 50 29 a4 bb
       0.0026088574 0.0042247004 0.00747942 -0.0050098076
0002a0 06 64 7c 3b 96 f8 0f bc b3 da 26 3b e8 bd 83 ba
       0.0038511767 -0.008787295 0.0025459945 -0.0010051103
0002b0 31 ce 84 3b 1f 74 17 bb fc 0c b4 bb cd fb 2e bc
       0.0040529002 -0.0023109985 -0.005494712 -0.010680151
0002c0 c3 7d ed ba 2f 1e b4 bc 88 42 65 3c 28 5c e5 ba
       -0.0018119145 -0.021987049 0.013992913 -0.0017498778
0002d0 43 ba 61 bb a9 c6 ac ba f6 11 85 3c 8b 90 f2 3a
       -0.0034443296 -0.0013181764 0.016243916 0.0018506212
0002e0 1f cb e8 3a 32 37 69 3b e1 df 8b bc 53 c6 04 3c
       0.001776073 0.0035585877 -0.017074527 0.008103925
0002f0 f4 f0 bd 3b be 2a 10 39 77 34 05 bc 6a ee 13 bb
       0.005796546 0.00013748833 -0.008130184 -0.0022572526

transformer_encoder.layers.0.self_attn.out_proj.weight f4 [64, 64]
000000 bb 5a c3 3d b1 d2 eb 3d 70 53 72 bd a6 e1 08 bd
       0.0953879 0.115147956 -0.059161603 -0.03341832
000010 57 41 86 3d 50 d6 93 3c 0a be 73 3d 13 68 15 3d
       0.06555431 0.018046528 0.059507407 0.036476206
000020 13 2e 50 bd 15 d0 c5 3d af f5 c6 bd a6 0b 04 3d
       -0.05082519 0.09658829 -0.09714829 0.03223767
000030 e9 30 d7 bd 29 ac da 3d 1d 9d 03 3e 1e 1b e5 bc
       -0.10507376 0.10677368 0.12852903 -0.027967032
000040 57 8d 6e 3d 01 aa e0 3d b9 3f 0e bd 0a 87 a5 3c
       0.05824026 0.10969926 -0.03472874 0.020205993
000050 a7 39 77 3c b2 01 8b 3c a6 80 cd 3d 08 0e dc 3d
       0.015089429 0.016968582 0.10034303 0.10744864
000060 b4 94 a9 bd 4e 9f 90 bd 80 02 39 bd 12 4d 0c 3d
       -0.08280316 -0.07061635 -0.0451684 0.034253187
000070 31 6e 09 3d b5 86 42 bd 35 d0 9e 3d c3 04 d1 bd
       0.033552352 -0.047491748 0.07754556 -0.10205986
000080 12 80 f6 3d b9 7f 67 bc 48 18 a0 3d 99 0d 5e bd
       0.12036146 -0.014129573 0.07817131 -0.054212186
000090 eb 80 aa 3d 9a 7c 57 bd 99 c1 8d bd ec f3 d4 bd
       0.083253704 -0.052609064 -0.069216914 -0.10398087
0000a0 07 4b 50 bd 86 2a 01 3e 85 86 f9 3d c5 04 d6 3d
       -0.0508528 0.12613878 0.12183861 0.104501285
0000b0 ba 4f aa bd c3 3d 9a bd aa 31 3f bd 0f ac a3 3d
       -0.08315988 -0.07531311 -0.046678223 0.07991802
0000c0 e3 b6 76 3b ff ff 40 bd 14 0e f1 3d 85 50 0b 3c
       0.003764563 -0.047119137 0.11770263 0.008503084
0000d0 7a 77 99 bd bc eb 56 bd 6f c2 77 bc c4 08 36 bd
       -0.074934915 -0.052470908 -0.01512204 -0.044441953
0000e0 5c 04 d5 3d 2c 0e a8 3d cb dc 6f bd 48 35 9b bc
       0.10401222 0.08205828 -0.058560174 -0.018946305
0000f0 aa db e4 bc e2 49 25 3d b1 9a 38 3d 22 40 9f 3d
       -0.027936775 0.040353663 0.0450694 0.07775904
000100 8f a0 e7 3d 24 7c 87 3d 1b 8e 10 bd fb df 69 bc
       0.11309921 0.06615475 -0.035291772 -0.0142745925
000110 02 d4 0f bc 51 38 2e 3d bf 71 af bc 48 5f 17 bc
       -0.008778574 0.042534176 -0.021416543 -0.009239025
000120 8f 18 f4 bd 56 8d 95 3d f9 e1 6c bd fd bd a3 3d
       -0.11918747 0.07302348 -0.05783269 0.07995222
000130 f3 58 b3 3c b6 37 68 3d 31 20 06 be 56 ba 84 3d
       0.021893 0.056693755 -0.13098218 0.06480853
000140 b9 c4 64 3c a7 02 0e 3d 29 cd 0c bc 9b de d6 3b
       0.013962918 0.0346705 -0.008593836 0.0065572984
000150 9c 6b b1 3d b6 12 4d 3d 1c d7 94 bc 76 9e 0d 3a
       0.08663103 0.050066672 -0.018168978 0.00054023357
000160 95 1c 88 3b e6 9f 27 3d 64 f7 05 3e ab f4 97 bd
       0.004153798 0.040923975 0.13082653 -0.074197136
000170 f5 24 f0 3d 90 a0 26 bc d3 fd 9b 3d 20 60 8d bd
       0.11725799 -0.010170117 0.076167725 -0.069031
000180 5e 86 d6 3c 78 f2 b8 3d 18 a7 c7 3d 82 e4 5a bd
       0.026187118 0.09030622 0.097486675 -0.05344058
000190 04 15 5e 3d 8d fe d9 3d dc b2 b4 bd 87 15 83 bc
       0.05421926 0.10644255 -0.08823177 -0.016001476
0001a0 3a 48 9f 3d 2c 46 32 bc 71 14 95 3c 60 3a e2 3d
       0.07777448 -0.010880988 0.018198224 0.110462904
0001b0 78 d6 f5 bd 37 6d aa 3d 13 f0 62 bd 63 c7 ef 3c
       -0.12003797 0.08321612 -0.055404734 0.02926988
0001c0 d2 0a 93 bd f0 32 53 3d f2 9e d2 bd 4d 14 3c 3d
       -0.07179798 0.05156225 -0.10284223 0.045917798
0001d0 aa 7f 8c bd 07 62 cb 3d a9 c6 af bd fc 6e 8f bb
       -0.068602875 0.099308066 -0.08582813 -0.004377244
0001e0 9c 56 b3 3c 90 1b 69 3d 8f e0 f5 3d 77 25 d6 bc
       0.021891885 0.05691105 0.12005722 -0.026140912
0001f0 06 61 bb bc 1c a0 ee 3d 91 60 f8 3d 22 b0 90 bd
       -0.022873413 0.11651632 0.121277936 -0.07064845
000200 9f 32 00 be d2 a4 e7 3d 62 29 ca 3d 4e 6a 36 bc
       -0.1251931 0.11310734 0.098711744 -0.011133743
000210 0d f4 48 3d 11 b4 8f bd 6b fa ab 3c 3c 83 ce 3d
       0.04906087 -0.07016767 0.020993432 0.10083625
000220 de dc f7 3d 03 24 60 3c 33 be 15 bd 04 a0 00 3e
       0.12102674 0.013680461 -0.03655834 0.12561041
000230 eb 3a 80 3c 42 d2 eb bd 82 9b 89 3d 0c 83 ec bd
       0.015653094 -0.11514713 0.06719114 -0.11548433
000240 e5 19 80 3d ea 84 0c 3e 9b 97 e3 bc 00 69 85 3b
       0.06254939 0.13722578 -0.027782252 0.004071355
000250 e9 9c 26 3d de 71 a3 bd 96 ac bd 3a 70 88 77 3d
       0.040676985 -0.07980703 0.001447099 0.06043285
000260 31 2e d6 bd 24 d4 16 3d f2 b5 a0 3c 69 5e 75 bd
       -0.10458029 0.036823407 0.019618008 -0.05990449
000270 91 e2 08 be 47 ec cc bc 85 e8 51 3d c4 0b bc bc
       -0.13367678 -0.02501501 0.05124714 -0.022954829
000280 48 c1 3e 3c 03 ae c1 bd 78 b4 06 be 88 7c c7 3d
       0.0116427615 -0.09457018 -0.13154781 0.09740549
000290 9f 9d db bb 98 97 92 ba f9 50 a9 bb aa b6 73 bd
       -0.0067021395 -0.0011184094 -0.0051671234 -0.059500374
0002a0 8e 15 ca bc 58 4f 16 3d f9 88 cf bd 8f 5e a2 3d
       -0.024668481 0.03669676 -0.10133547 0.07928192
0002b0 3c a6 b5 ba 4a a9 43 bd 60 bd 7c 3d 89 2f 0a bd
       -0.0013858746 -0.04776887 0.06170404 -0.03373674
0002c0 a9 51 f2 bb 3b 24 e1 3c 78 6d 7f 3c a2 61 3f bd
       -0.0073949886 0.027483096 0.015590064 -0.04672397
0002d0 c7 4b 69 bd 77 bc 37 3c 5c 30 0f bd 28 65 d3 bd
       -0.056957033 0.011214367 -0.03495823 -0.103220284
0002e0 34 37 5c bc 1d 8b fe 3d cc 0b ef 3d 1b 32 b0 bc
       -0.013440896 0.124288775 0.11672172 -0.021508267
0002f0 ae a7 d9 3c f5 39 e8 bd 1a b3 bf 3d 0e 7e fc 3b
       0.026569214 -0.113391794 0.09360333 0.0077054566
000300 f6 de b5 3d fb 8e be bd 11 94 fe bd 6a 74 fc bc
       0.08880417 -0.09304615 -0.12430585 -0.03081723
000310 78 96 f0 3c c5 87 b3 bd bb 11 92 bc 1b 9e ca 3d
       0.029368624 -0.0876613 -0.01783072 0.098934375
000320 dc 85 99 3d b1 c3 9d 3c 45 3d a3 3d 76 38 71 bd
       0.07496235 0.019258352 0.079706706 -0.058891736
000330 cf da 6e bd fb 60 0d bd c9 eb f5 bd 63 19 fe 3d
       -0.05831414 -0.034516316 -0.12007863 0.12407186
000340 4b 98 7a bc cc 03 8c bd bf a2 ac bc 4a 3f d7 3d
       -0.015295099 -0.06836662 -0.021073697 0.10510118
000350 90 61 b3 bd 86 62 7c 3d 7d 60 96 bd 1b 08 75 3c
       -0.08758843 0.061617397 -0.073426224 0.014955546
000360 5a 59 5b bc da 39 76 3d 35 2a c9 3d 39 f6 98 3d
       -0.013388002 0.060113765 0.098225035 0.07468838
000370 63 8a b6 bd 1d 3d 41 bd 17 61 57 3d 91 6f 2c bd
       -0.08913114 -0.047177423 0.052582826 -0.042098586
000380 58 4f 00 be 4c 84 b5 3d d9 3b 6c bd 3c 54 be ba
       -0.12530267 0.08863124 -0.057674263 -0.0014520953
000390 ba 2c 55 3d 6a 0c 25 3c bf 20 43 3d 36 d3 8b bd
       0.052044608 0.0100737605 0.04763865 -0.06827395
0003a0 95 1c 29 bd 42 2a 2d bd 73 3e 98 3d 59 46 a5 3d
       -0.041287024 -0.04227663 0.07433786 0.080700584
0003b0 52 b0 0b bd b4 cc 93 3d 9f 5a 08 bd f5 fb f3 bb
       -0.0341037 0.072167784 -0.033289548 -0.007445807
0003c0 72 a0 c4 3c bf d0 8b bc 12 97 2c bd 9b 29 f7 bd
       0.024002288 -0.017067311 -0.04213626 -0.120684825
0003d0 7e 98 5c bd 7d d7 b3 3d 75 29 a1 3d 99 c2 62 bc
       -0.053856365 0.087813355 0.078692354 -0.013840341
0003e0 19 4b 3f bd 16 d3 85 bd 3f 93 7c bb 9f 81 59 bd
       -0.046702478 -0.06534402 -0.0038539914 -0.053102132
0003f0 f6 b2 99 bd 38 4b ae 3d 34 59 24 bd e1 a0 fa 3c
       -0.07504837 0.085104406 -0.040124133 0.030594291

transformer_encoder.layers.0.self_attn.out_proj.bias f4 [64]
000000 04 33 d2 3b 3d c1 3e bc 6e 49 01 3c a1 2b 06 bb
       0.006414773 -0.011642751 0.007891042 -0.0020472782
000010 5f 93 0e 3b e6 bf a4 3b 40 93 b7 3a a2 53 09 bc
       0.002175532 0.005027759 0.0014005676 -0.008381756
000020 0a aa 8f 3a 9c f9 dd bb 1e dc 9c 3b b1 9c 79 bc
       0.001096071 -0.0067741405 0.004786982 -0.015235112
000030 d3 94 bf bb c4 46 88 3b c4 da 83 3a f3 af 1a 3c
       -0.0058465987 0.0041588265 0.0010059704 0.009441364
000040 14 d0 d5 3b 36 7d 50 bb 90 46 36 bb 48 cf 4d bc
       0.006525049 -0.0031812913 -0.0027813055 -0.012561627
000050 11 e2 1e 3b fa a5 0c bb e8 53 03 ba 8f d7 03 3c
       0.0024243633 -0.0021461234 -0.00050097564 0.008046999
000060 4b f7 c3 3b 0f 8e 04 3c 87 e5 c1 38 3b d3 a7 bb
       0.0059804074 0.00809051 9.24571e-05 -0.005121616
000070 ff 9d 1f bb 62 96 75 ba ab ad 20 3c 3e 7a bb bb
       -0.0024355648 -0.0009368417 0.009807031 -0.0057213595
000080 f5 58 06 ba b5 1e 18 bb 12 a1 e4 bb 9a 23 12 3c
       -0.000512495 -0.0023211662 -0.006977209 0.008919621
000090 8c 2e f2 3b fc 74 02 bb 85 ea 4e 3a 62 74 0a 3c
       0.0073908027 -0.0019906154 0.00078932225 0.008450599
0000a0 01 ef 14 bc 35 f0 47 3b 52 fa cb 3b c7 e4 22 3c
       -0.009090186 0.0030508165 0.006224909 0.00994224
0000b0 67 a1 70 bb e7 27 9e 3b de 45 bb bb cf 41 07 3c
       -0.0036717297 0.004826534 -0.005715116 0.008255436
0000c0 75 f5 30 3b fe da 09 3b 90 d9 e0 3b 01 fa 1c bb
       0.0027001773 0.002103507 0.006861873 -0.0023952725
0000d0 d6 8a 88 38 f8 32 e1 3b ad 55 e4 3b fe 9d 3e 3c
       6.5108456e-05 0.006872531 0.006968221 0.011634348
0000e0 ce 22 d5 3b 40 26 ee 3a c4 b5 1d bc 94 45 34 bc
       0.006504393 0.0018169358 -0.009625856 -0.011002917
0000f0 06 ae c4 bb 97 fa b2 3b d0 26 e0 3a 47 25 c7 bb
       -0.0060021905 0.0054620015 0.0017101411 -0.006077442

transformer_encoder.layers.0.linear1.weight f4 [128, 64]
000000 b2 b5 bf 3d b8 24 44 3d 02 e4 8e bd 41 42 54 3d
       0.093608275 0.04788658 -0.06977083 0.051820997
000010 42 e8 b8 bd 69 2d cf 3c fd 9f df 3c 92 d6 e0 3c
       -0.09028675 0.025290208 0.027297968 0.027446065
000020 9a 0c cc bd e0 a8 55 3c fe e4 e3 bd 16 07 c4 bd
       -0.09963341 0.013040751 -0.11127661 -0.09571664
000030 bd c3 77 3d 28 67 76 bd 18 5f c4 3d ec 43 90 3d
       0.060489405 -0.06015697 0.0958845 0.07044205
000040 a8 b4 f0 3c a5 b8 e9 3c dc 61 dc 3d 2c 00 f8 3d
       0.029383019 0.028530428 0.10760853 0.12109408
000050 1a 0b 24 3d 24 e9 c9 3d de 31 0c be ea 54 69 bc
       0.04004965 0.09858921 -0.13690898 -0.0142414365
000060 c1 f4 8e 3d 05 be 0b bd c9 61 9a 3c fb b2 19 bd
       0.06980277 -0.034116764 0.018845456 -0.037524205
000070 88 4e 50 3d 00 3a 02 be 2d a4 0d be 6b 19 c3 bc
       0.050856143 -0.12717438 -0.1383216 -0.023815831
000080 9b 9a b5 bd 61 3f 83 bd c0 72 a3 3c 4d e2 8a 3c
       -0.08867379 -0.06408573 0.019952178 0.016953612
000090 e0 1c c2 3c 38 8e b5 3d 22 85 03 be 52 63 0a be
       0.02369541 0.08865017 -0.12843755 -0.1351445
0000a0 6c a3 fc 3d 63 7d a9 bd e8 a6 76 bc 06 f9 c2 bd
       0.12335858 -0.08275869 -0.015054442 -0.09520154
0000b0 d2 2a cc 3d 38 c3 56 bd 60 0c 0a 3e 78 f1 e4 3c
       0.09969105 -0.05243227 0.13481283 0.027947173
0000c0 34 a2 c6 3d 8d e1 c9 3d ea e9 a6 3c b8 00 d7 3d
       0.096989065 0.098574735 0.02037521 0.10498184
0000d0 18 c7 a8 bd 5e 66 d6 3d 75 ad 33 bc e4 7a ab 3d
       -0.08241099 0.10468744 -0.010966648 0.08373049
0000e0 3f e8 0a 3d 5f 4e da 3d bc c0 73 bd ad b2 19 3d
       0.033912893 0.10659479 -0.059509978 0.037523914
0000f0 3a 9f 9b bc a8 9e 4b 3d f7 e4 21 bd a8 69 6b 3c
       -0.018996824 0.049711853 -0.039525 0.014368452
000100 93 91 e9 3d 3a 5a c0 3d f2 eb bc bd d4 38 2a bd
       0.11404719 0.09392209 -0.092246905 -0.0415581
000110 22 67 6e bd 10 f2 79 bd f1 66 ca 3d 96 12 d8 3c
       -0.058203824 -0.061021864 0.09882916 0.02637605
000120 1b 7d 60 bd d9 26 1a bb 53 b9 18 3c 8e e8 03 be
       -0.05480681 -0.002352169 0.0093215285 -0.12881681
000130 23 da c6 3d a9 56 e8 bd b8 f5 c6 bd 15 17 d2 bd
       0.09709575 -0.11344654 -0.09714836 -0.10258309
000140 b0 f2 4d 3d e8 9c 14 bd 3b 57 62 3d 3e f1 ae 3d
       0.050280273 -0.03628245 0.05525897 0.08542107
000150 b9 88 f1 3d a5 d6 60 bc 76 8b c5 3d d6 16 b5 3d
       0.11793656 -0.01372305 0.09645741 0.08842246
000160 97 b9 40 bd 36 f5 f2 3b 7b 48 52 bd dd 27 c5 3d
       -0.047051992 0.0074144853 -0.051338654 0.09626744
000170 c8 6b ad bd de 5f 0b 3d bc 1a a8 bc 49 ca 41 3d
       -0.08467823 0.034026973 -0.02052056 0.047312055
000180 a6 49 ae 39 ad f4 b4 3d 1d f1 40 bb 5d 3d fd bd
       0.0003324274 0.08835731 -0.002944059 -0.1236522
000190 33 a4 83 3d 0a c6 78 3d 46 02 b7 3d c4 e4 8b bd
       0.06427803 0.06073574 0.089359805 -0.06830743
0001a0 8c 18 b7 bd 77 0c 99 3d d9 c2 2c 3d 29 7e 6d bd
       -0.08940229 0.074730806 0.04217801 -0.057981644
0001b0 dd 7b 2a bd f3 ed 52 3d f0 8f 8a 3d 52 40 c4 bd
       -0.04162203 0.051496457 0.06765735 -0.095825806
0001c0 2a 0d 9c bd 0e b8 a1 bc 03 6d be 3c 10 93 e8 3c
       -0.07619698 -0.019741084 0.02324534 0.028390437
0001d0 94 67 75 bd 5d bd a0 bc 4c 40 08 bd 59 cd 91 3d
       -0.059913233 -0.019621545 -0.033264443 0.07119245
0001e0 50 ad 45 bc 42 27 bf bd 5c 50 27 bc 3a 2b 85 3c
       -0.012065247 -0.0933366 -0.01021203 0.016255964
0001f0 5a 1e ae bd e1 1c b8 3d e5 d5 77 3c be 7f 1c 3d
       -0.08501883 0.08989883 0.01512668 0.038207762
000200 a6 98 6f bd c6 69 e2 3d 03 af a9 bd 84 db 89 3d
       -0.058495186 0.11055331 -0.08285334 0.067313224
000210 0f a5 eb 3b 9f a1 2b 3d 1d f5 a4 bd 5e 72 c8 3d
       0.0071913074 0.04190218 -0.08054564 0.09787439
000220 9a 3d 00 be d0 c8 28 3d 1d 78 66 bd 64 6a 00 bd
       -0.12523499 0.041207135 -0.056266893 -0.031351462
000230 94 b5 b0 3d da b4 7e bd 06 f2 a5 bd ed 0f 17 3d
       0.08628383 -0.062184192 -0.08102803 0.036880422
000240 81 b1 bc bd 02 78 24 bd dc 88 cc bd 8d 0a c1 bd
       -0.09213544 -0.04015351 -0.09987041 -0.094258405
000250 4b c6 d0 bd 4d 39 a8 bd f8 62 32 bd ab 25 59 3d
       -0.101940714 -0.08214054 -0.043551415 0.05301444
000260 96 4c d5 bd 44 9e 75 3d a7 e2 a1 3d 87 f0 dc 3d
       -0.10414998 0.059965387 0.07904559 0.107880645
000270 9d d1 e1 bd 6f 9e a3 bc 05 3a d5 3c 62 d6 cf bc
       -0.11026309 -0.019973008 0.026028642 -0.02537078
000280 8b 99 7d bd 82 ee 0e 3e b2 46 9e bc 55 0a fa bc
       -0.061914008 0.13958171 -0.01932082 -0.030522505
000290 af 21 01 be e9 62 29 bd f0 2d ae 3d 76 c9 1d 3d
       -0.12610506 -0.041354094 0.08504856 0.038522206
0002a0 24 81 b8 3b 79 85 21 bc 07 e1 cb 3d 14 54 11 be
       0.005630629 -0.0098584825 0.0995503 -0.1419223
0002b0 01 10 db bd 6f 39 b3 3d 3a b9 0a bd 27 82 a4 3d
       -0.10696412 0.08751189 -0.033868052 0.08032637
0002c0 29 9c 8b bd 3c 3f b6 bd bc 0b 53 bd fd 66 13 bd
       -0.068168946 -0.0889878 -0.051524863 -0.03598689
0002d0 ac 0d 8b bd 80 87 fd 3c b4 0b d2 3d 30 08 4f 3c
       -0.06789717 0.0309484 0.102561384 0.012636229
0002e0 9b e7 1c bc 4b d3 94 bc 0f b2 9c 3d 3b 6a ac bd
       -0.009576703 -0.018167159 0.076511495 -0.08418699
0002f0 0b 90 99 bc 4d 20 ff 3d 4d d8 b8 bd 9b d4 45 3b
       -0.018745443 0.12457333 -0.09025631 0.0030186537
000300 b0 c9 c8 ba 11 15 75 bb fd 38 a7 3d 51 d0 df bc
       -0.0015318897 -0.003739659 0.081651665 -0.027321013
000310 af 28 e5 bd 10 ce 96 bd 6b 58 cd bd 6b 27 4b bc
       -0.111894004 -0.07363522 -0.1002663 -0.012399535
000320 ca cd 97 3d be 5e 3c 3d c1 0c 0c 3d bf fe 40 bd
       0.07412298 0.04598879 0.03419185 -0.047117945
000330 1b b0 31 bd c1 e4 59 bb a1 07 9e 3d 49 e9 c1 bc
       -0.043380838 -0.003324792 0.07716299 -0.02367081
000340 77 93 55 bd 1b e5 a1 bd e1 ca 40 bd b1 93 b3 bd
       -0.052142587 -0.079050265 -0.04706848 -0.08768404
000350 71 95 42 3b 17 2b 5e 3d 41 ec a7 bc bf 88 0c be
       0.0029691125 0.054240312 -0.020498397 -0.1372404
000360 84 32 f0 bc 31 8c bd 3d 15 54 0b be 34 91 02 be
       -0.029320963 0.09255255 -0.13606293 -0.12750703
000370 d2 5e c2 bd b1 4e bf 3d a2 30 af 3d aa 54 a8 3d
       -0.09490742 0.09341181 0.08554198 0.082192734
000380 7e f8 b5 3d 87 a0 60 bb 6b fb 31 bd ca c8 8c 3d
       0.08885287 -0.003427537 -0.04345266 0.06874235
000390 cd 55 8e 3d a4 fa 82 bd 39 fb 94 3d 0c a5 0b be
       0.06949959 -0.06395462 0.072744794 -0.13637179
0003a0 16 37 e8 bc 3b 28 cb bd ab 3c c4 bd 01 9f 4e bd
       -0.02834658 -0.09919783 -0.09581884 -0.050444607
0003b0 3c b2 9c bd be be 11 bd 5c 9a e7 bc 84 aa 07 be
       -0.07651183 -0.035582297 -0.028271846 -0.1324864
0003c0 15 db 78 3d 54 3b 07 be 51 17 a6 3b b5 53 94 bb
       0.060755808 -0.13206226 0.0050686975 -0.00452658
0003d0 bb 24 b2 bd f8 6a ef bd 4e 5e 46 bd 43 02 b3 bd
       -0.08698412 -0.116903245 -0.04842978 -0.08740666
0003e0 9c bb 96 bd ed b0 53 bc 5b b6 93 3d be 84 c7 3d
       -0.073600024 -0.0129206 0.07212516 0.097421154
0003f0 8b e7 b4 3d 0c 2f 53 3d 6a 50 a2 3d ce a8 97 3d
       0.08833226 0.05155854 0.07925494 0.07405244

transformer_encoder.layers.0.linear1.bias f4 [128]
000000 b3 7b 58 bd 16 ea 80 bd 9a 48 ce 3d 2a 16 be ba
       -0.052852344 -0.06294648 0.100724414 -0.0014502455
000010 b7 37 05 be 21 7f b9 3d 22 9f cb bd 1b 16 93 3c
       -0.13009535 0.09057451 -0.099424616 0.017954877
000020 2a df 32 3c c7 69 f3 bc 38 94 6c bd 50 78 4f 3c
       0.010917464 -0.029713525 -0.05775854 0.012662962
000030 a4 02 02 bd 4f f3 90 3d a0 c6 c9 3d 40 38 3a 3d
       -0.0317408 0.070776574 0.09852338 0.0454638
000040 0a f7 91 bb dd 1d 6e bd 07 f3 7c bb b5 20 e5 3d
       -0.004454498 -0.05813395 -0.0038597004 0.11187879
000050 ba c8 38 bd e1 27 dc 3c 78 ca b5 3d 4d 50 10 be
       -0.045113303 0.026874484 0.088765085 -0.14093132
000060 ff 29 af 3d e3 32 5c 3d cf d7 d9 bd da e9 da 3d
       0.08552932 0.053759467 -0.10636865 0.10689135
000070 69 32 68 bd d9 03 0d 3d 4a f3 11 bd 52 0a 43 3d
       -0.0566887 0.034427498 -0.03563241 0.047617264
000080 49 9f 80 bd 83 e7 93 3d 82 a2 88 bd 3b 75 06 be
       -0.06280381 0.07221892 -0.06671621 -0.13130657
000090 a8 bc a1 bc 7d db 8d 3d 80 62 ee ba 6a f5 b0 bd
       -0.019743279 0.0692663 -0.0018187314 -0.08640559
0000a0 cd 6d cd 3d 3e e4 72 bc 78 dc 60 bb 48 38 c1 bc
       0.100307085 -0.014824925 -0.0034311097 -0.023586407
0000b0 c0 84 c7 bd 95 ad 6f 3d 4c 90 a3 bd b2 58 1a bd
       -0.09742117 0.05851515 -0.07986507 -0.037682243
0000c0 b5 3f a8 3d 3d d5 f6 bd c8 f0 73 3d 13 6e b6 bc
       0.08215276 -0.12052391 0.0595558 -0.022269284
0000d0 72 84 a3 3d e7 8b 86 bd dc 7d 69 3d d7 b7 31 3d
       0.07984246 -0.06569653 0.057004794 0.043388214
0000e0 d2 4f b3 bd 63 c7 8f 3d 10 49 71 bd 00 62 60 3d
       -0.08755459 0.07020452 -0.05890757 0.05478096
0000f0 5e 87 d6 bd 22 ce 08 be 36 d8 07 bd bb 0f 88 3d
       -0.10475038 -0.13359883 -0.03316518 0.06643625
000100 46 a1 6c bd e6 11 d3 bc 81 06 be 3b 72 c0 c4 3d
       -0.05777099 -0.02576537 0.005799115 0.096070185
000110 c8 54 86 bb e2 c4 94 3d 32 1b 59 bd 16 a6 ae bc
       -0.004099462 0.07264115 -0.05300445 -0.02131943
000120 86 7c 6a bc 52 61 99 bc c6 3e e8 3d 77 04 8c bd
       -0.014311915 -0.018723164 0.11340098 -0.06836789
000130 1d 37 12 3d 1f 66 8b 3d 50 53 72 bd 0d 68 a0 bd
       0.03569709 0.068065874 -0.059161484 -0.07832346
000140 75 c2 3b 3c eb 65 1f 3d 71 58 04 bc bf 75 21 bd
       0.011459936 0.038915556 -0.008077727 -0.039418932
000150 01 e9 60 bd 6e da b1 3d 6f 0b 6d bb 5a 2f ef 3d
       -0.05490971 0.0868424 -0.0036170145 0.116789535
000160 21 11 84 3d 69 86 04 3c bd 0f a7 3c c5 1b 94 bd
       0.064485796 0.0080886865 0.020393247 -0.07231859
000170 da 93 d4 3d 17 1b 3e 3c 74 68 e8 3c da be e9 bd
       0.10379763 0.011603138 0.02837012 -0.11413355
000180 b8 1a 89 3d 8c 80 9b bc f0 ed 80 3d 75 c7 59 bd
       0.06694549 -0.018982194 0.06295383 -0.053168733
000190 14 51 e6 bd 1f cb 56 bb a9 da 85 3d 6e c8 9b 3d
       -0.11245933 -0.0032774878 0.06535847 0.07606588
0001a0 21 24 b2 bd 65 f1 d2 bd 45 5e d8 3d 6a f9 9d bc
       -0.08698297 -0.102999486 0.105648555 -0.019283969
0001b0 67 18 e3 3d a2 ab 81 bd 31 33 e8 3b ff 81 0b 3c
       0.11088639 -0.063315645 0.0070861806 0.00851488
0001c0 b9 89 58 3d 62 1f 98 3d 83 98 a1 3c 08 fa f1 bd
       0.052865718 0.07427861 0.019726044 -0.11815268
0001d0 38 8c c2 3c dc f9 4d bd 54 e0 c0 3d af 13 09 3c
       0.023748502 -0.050287113 0.09417787 0.008366509
0001e0 98 64 f7 bc 50 8a 72 3d af 09 a7 3c d9 02 95 bc
       -0.030199334 0.059213936 0.02039036 -0.018189834
0001f0 b8 e1 db 3d 37 5a f4 3d 18 cf b3 3d ef fc 03 bb
       0.10736412 0.119312696 0.087797344 -0.0020139774
